# Ultralytics YOLO 🚀, AGPL-3.0 license
# YOLOv8 object detection model with P3-P5 outputs. For Usage examples see https://docs.ultralytics.com/tasks/detect
# Parameters
nc: 80  # number of classes
scales: # model compound scaling constants, i.e. 'model=yolov8n.yaml' will call yolov8.yaml with scale 'n'
  # [depth, width, max_channels]
  n: [0.33, 0.25, 1024]  # YOLOv8n summary: 225 layers,  3157200 parameters,  3157184 gradients,   8.9 GFLOPs
  s: [0.33, 0.50, 1024]  # YOLOv8s summary: 225 layers, 11166560 parameters, 11166544 gradients,  28.8 GFLOPs
  m: [0.67, 0.75, 768]   # YOLOv8m summary: 295 layers, 25902640 parameters, 25902624 gradients,  79.3 GFLOPs
  l: [1.00, 1.00, 512]   # YOLOv8l summary: 365 layers, 43691520 parameters, 43691504 gradients, 165.7 GFLOPs
  x: [1.00, 1.25, 512]   # YOLOv8x summary: 365 layers, 68229648 parameters, 68229632 gradients, 258.5 GFLOPs
# YOLOv8.0n backbone
backbone:
  # [from, repeats, module, args]
  #                               # 0-p1/2
  #                               # 1-p2/4
  #
  #                               # 2-p3/8
  #                               # 3-p4/16
  - [-1, 1, lcnet_075, [True]]
  - [-1, 1, SPPF, [1024, 5]]      # 5

# YOLOv8.0-p2 head
head:
  - [-1, 1, nn.Upsample, [None, 2, "nearest"]]
  - [[-1, 3], 1, Concat, [1]] # cat backbone P4
  - [-1, 3, C2f, [512]] # 12  8

  - [-1, 1, nn.Upsample, [None, 2, "nearest"]]
  - [[-1, 2], 1, Concat, [1]] # cat backbone P3
  - [-1, 3, C2f, [256]] # 15 (P3/8-small) 11

  - [-1, 1, nn.Upsample, [None, 2, "nearest"]]
  - [[-1, 1], 1, Concat, [1]] # cat backbone P2
  - [-1, 3, C2f, [128]] # 18 (P2/4-xsmall) 14

  - [-1, 1, Conv, [128, 3, 2]]
  - [[-1, 11], 1, Concat, [1]] # cat head P3
  - [-1, 3, C2f, [256]] # 21 (P3/8-small) 17
  - [-1, 1, SE_DCCS, [16]]
  - [[14, 18], 1, Detect, [nc]] # Detect(P2, P35)